ac_model.pth (torch, 76364 bytes, 7 tensors)

fc1.weight f4 [128, 8]
00000000: 2e84 47be 634d e23e 410e 373f 2097 27be
00000010: 340c 34be 34f8 6a3e 10c5 f2bc dd38 b0bd
00000020: 43e1 ba3e 5d7f 52be 7846 ca3e af35 7b3e
00000030: e62f 66be fe30 7d3e 62cf 833e f064 523e
00000040: cc8a fabd 93cb d03e 504d f8bd f093 96be
00000050: da7b 08bc 0347 f73c 5d38 e23d ecc3 78be
00000060: c1e9 ad3c 25ea 9abb a0cf 3fbc 9a4f 943b
00000070: 2b4d 923f 5c11 183b 7266 f43d 7fed c83c
00000080: 0aea 19be 68c5 f1be c57f 07be 623f 12bd
00000090: b449 35bd 994c 53be a31d d13c 7ce3 aa3e
000000a0: 2333 d23e e7da c23e d433 19be 63c7 1b3f
000000b0: 5e2e 8a3c 1a66 c2be 0ac6 bcbe 2894 0cbe
000000c0: 54a1 d23e 2586 243e a810 603f 78dc 813d
000000d0: afa2 6e3e 3fc8 c4be 0c8c e4bd df68 2b3e
000000e0: 677c 14be 596a 8a3d ce7e 5ebf d306 343f
000000f0: ea05 dc3d d50a 193d d9dd 123e c6b7 adbd
00000100: 5c8f ae3e 837e 55bf d20f 74be e48d 42be
00000110: c2b9 21bf cb19 8bbd ef8f 58be 8555 3ebe
00000120: e27a 623e 8313 63bd a207 70be 84c3 51be
00000130: b021 983e bdea ca3e 6583 083d 2410 163e
00000140: 49f3 a1be 725a b6bf 5b0d de3d 0863 d8bd
00000150: 82dc 3a3f 6770 8ebe ece3 f03d 6a63 b23e
00000160: c031 5e3d ebbc 1fbe 8917 573f 03f6 033f
00000170: 1af8 b9be 1134 aa3d 1909 d8bd a6f0 2d3e
00000180: 0418 863e 961a febd ba72 1c3f 9a5a 02bf
00000190: 4f3e 24bf 1955 9fbd c881 613e 3ea6 783e
000001a0: 4e3f f6bd 995b 1e3e 268e cc3e b70a 51be
000001b0: 0089 2dbf f800 74be 5ada a23e 14c3 81bc
000001c0: 30b4 ae3e ef1f 873c 3f19 35bf a97f b4be
000001d0: 7aa3 1d3e d252 0abd 327d 363c d0c0 14be
000001e0: 8062 5a3e 0fdc 99bd 0f5b 8abf 014c c93e
000001f0: 5a88 b63e ade6 8c3b 7795 5dbe db31 1bbe
00000200: d778 b63e 6614 993c 5d95 003f 0997 213e
00000210: 202d d8be 47f7 84be d343 a23d 16d8 d33d
00000220: f937 f93d f45c a0b9 ea60 4b3d 59f9 1cbe
00000230: 9ecb d8bd 1158 0eba 501f 3a3e 61a5 bfbd
00000240: b6a6 5f3e 8a76 cb3d 7405 2c3f cb01 b93e
00000250: b6f7 003e 3e0d 96bd 5964 7d3e 1e6d 98be
00000260: d0c4 0bbe e391 d8bd 0866 cebd 4048 d0be
00000270: b154 8d3d 1ed8 78be 8953 c6bd 8cd4 063e
00000280: eed1 ebbd b915 b13d f59e 1b3f 13f6 35be
00000290: fcb1 23bf d258 94be b624 29be fd1e 6abe
000002a0: 8781 d63b 1893 633d 028d 903e 9585 ccbd
000002b0: c4a8 553d 101a c1bd 3660 69be 37f9 30be
000002c0: 0117 433e 6926 f43d f1f5 4abf bfea 543f
000002d0: b197 ff3e ca6c ebbc d823 a03d ce66 13be
000002e0: e4b6 88bd 84fb c13e 5b4d 1f3f c81d 423f
000002f0: 30f6 233e 492d b23e dd24 23bd f0f0 3d3d
00000300: ab37 cabe 0144 adbc 05bc 163f 6ce8 97be
00000310: 3b1f 1abf f9a9 6dbd 89d7 a13d 3137 af3e
00000320: aa19 093e 78cb af3e 98d9 353f c70b c0bc
00000330: 1993 50bd 1d6f 723e 7e91 8fbe 7eb0 5dbe
00000340: dd03 833e a731 ebbc c231 a3be 8a25 b7be
00000350: e72e be3e 387b a0bd 7f3e df3d 738c 0e3e
00000360: a504 83be b323 19be 66e0 06bf 8788 9bbe
00000370: a572 8a3e ca40 3cbe 6db6 983e fc16 36be
00000380: 696b ffbd 445e 0abf f6bd ed3e 38dc 5abc
00000390: 900c 49be 6cd9 9a3d 0982 78be afd7 793e
000003a0: d764 8abe e001 8fbd 084e 983e cfef 08bf
000003b0: 54f6 cbbe 2114 cbbd 32cf 4f3e 35fe 653d
000003c0: ef86 c23d 16d6 16bf 9e3c b53e 91c5 15be
000003d0: 87cf ea3d f5f9 573e 4b61 af3e 54d1 973c
000003e0: 2bb8 38be aeca 33be 586a 47bf 724e f7bd
000003f0: 9ae4 03bf abdd aabe 7337 e23c 7286 19be
-0.19484016 0.44199666 0.71506125 -0.16366243 -0.1758278 0.22946244 -0.029634982 -0.08604596
0.36499986 -0.20556398 0.39506888 0.24532197 -0.2247921 0.2472572 0.25744158 0.20546317
-0.12233505 0.40780315 -0.12124121 -0.29409742 -0.00833031 0.030185228 0.11045907 -0.24293488
0.021229627 -0.0047276192 -0.0117072165 0.004526091 1.14298 0.0023203706 0.119336024 0.02452731
-0.15030685 -0.47220922 -0.13232334 -0.035704978 -0.044259742 -0.20634688 0.025526827 0.33376682
0.4105464 0.38057634 -0.14961177 0.60851115 0.016867813 -0.37968522 -0.36869842 -0.13728392
0.4113871 0.16066797 0.87525415 0.06340879 0.23304246 -0.38434026 -0.11159524 0.16739224
-0.1450058 0.067585655 -0.8691224 0.7032291 0.107433155 0.037363846 0.1434244 -0.084823176
0.3409375 -0.83396167 -0.2383416 -0.1899944 -0.6317407 -0.06792029 -0.21148656 -0.1858731
0.22117189 -0.05543853 -0.23440412 -0.2048474 0.29713202 0.39632216 0.033328433 0.14654595
-0.31630924 -1.4246352 0.10842391 -0.10565764 0.7299272 -0.2782013 0.11762223 0.34841472
0.054246664 -0.1559941 0.84020287 0.5154726 -0.363221 0.08310712 -0.1054861 0.16986331
0.26190197 -0.124074146 0.6111256 -0.50919497 -0.64157575 -0.07779903 0.22022164 0.24282166
-0.12023793 0.15464629 0.399522 -0.20414244 -0.6778717 -0.23828495 0.31807214 -0.01584009
0.34121847 0.01649472 -0.7074165 -0.35253647 0.15394393 -0.03377039 0.011138247 -0.14526677
0.21326637 -0.07512676 -1.0809039 0.393158 0.35650903 0.0042999596 -0.21639048 -0.15155737
0.35639068 0.018686485 0.5022791 0.15780272 -0.42221928 -0.25969908 0.07923093 0.103439495
0.12168879 -0.00030586834 0.04965297 -0.15329494 -0.10585712 -0.0005429993 0.18176007 -0.093577154
0.21840939 0.09934719 0.6719582 0.3613418 0.12594494 -0.073267445 0.24745311 -0.2977075
-0.13649297 -0.10574701 -0.10078055 -0.40680122 0.06900919 -0.24301192 -0.09683902 0.13167018
-0.1151465 0.086467214 0.60789424 -0.17769651 -0.6394346 -0.28974015 -0.1651791 -0.22863384
0.0065462026 0.0555602 0.2823258 -0.09986416 0.0521629 -0.09428799 -0.22790608 -0.17282568
0.19051744 0.11921389 -0.79281527 0.83170694 0.4992042 -0.028738398 0.07819337 -0.14394686
-0.066755086 0.37887204 0.6222741 0.7582669 0.16011882 0.34800175 -0.039830077 0.046372354
-0.39495596 -0.02115059 0.58880645 -0.2966951 -0.60203904 -0.058023427 0.07902438 0.34221795
0.13388696 0.34334922 0.71035147 -0.023443116 -0.050921533 0.23675199 -0.2804069 -0.21649358
0.25588885 -0.0287102 -0.318739 -0.35770828 0.3714516 -0.07836002 0.10900592 0.13920765
-0.2558948 -0.14955024 -0.52686155 -0.303776 0.27040592 -0.1838409 0.2982668 -0.17782205
-0.12471659 -0.5405009 0.4643399 -0.013358168 -0.19633698 0.07561001 -0.24268354 0.24398683
-0.2703006 -0.069827795 0.29747033 -0.5349092 -0.3983637 -0.09915949 0.20293882 0.056150634
0.09498393 -0.5892042 0.3539781 -0.14626147 0.11465364 0.21091445 0.34253916 0.018532433
-0.18039005 -0.17557785 -0.7789664 -0.12075509 -0.51520693 -0.33372244 0.02761433 -0.14992693

fc1.bias f4 [128]
00000000: 018e a3be 013b 903d 319d 893e 86eb 563b
00000010: 5776 683e 4067 85be aa0d 273e 8484 113e
00000020: c827 86be 1b62 16be 16d4 23be 2faf 6b3e
00000030: 28bf a8be dadc 20be 2669 8c3e b8a7 fc3d
00000040: e5ae 633e 6761 d93e 3e81 00be 3679 a63e
00000050: c5d1 bbbd 8f9d f73e 2e93 143e 7743 35bc
00000060: 8924 a7be bedd e83c d467 783e 486b ba3e
00000070: 6ea9 1f3b 6103 7f3e 0a1e 333e b403 dd3d
00000080: 4bb1 6cbe f97c d83e f29f 51be e930 203e
00000090: aaf0 943d 5bc3 9cbd c1e3 913d 5e76 183e
000000a0: ddd0 923a 6d34 973e 96c8 86be 0d59 c6be
000000b0: 9498 42be 6970 be3e 7c1b 88be aaff 1b3b
000000c0: 0122 df3d d01b abbe 9f84 dd3d 2baf 263d
000000d0: 0dd1 233e ba03 90bd 283a 873e ba84 96be
000000e0: a143 a63e 4073 9f3e c2b7 6a3e 2ef1 55be
000000f0: 7fb3 ed3e 899c 07bc a204 48be 484b bc3e
00000100: 8d4a f0bc 961c 41be 0e0f 5fbd 6e7f 993e
00000110: 69d4 e23d 1d62 b53d 0c7f 94be 97fc 4d3e
00000120: c0bb 6a3e 0cf4 36be db45 e53d 672a dd3e
00000130: c5cf 9f3e e5b1 ad3e 0d0c 103e 95bc 873e
00000140: b9ec f03e 5b74 7ebd 812f a3be e92a 76be
00000150: 6bcf 55be c6fb bb3e b1df 133d 3a86 4c3e
00000160: 96ca 7e3d 563b 45bc 0e60 c63d ef48 bf3e
00000170: ae70 1ebe 4e89 063e ae3c c73d af66 a3bd
00000180: 7368 743d b01c 963e 86a0 a13e 656b f43e
00000190: 8653 743e 42db b13e 8b64 0f3e 3b8c 023d
000001a0: 0eb8 1bbc bfd9 c43d c424 2c3e a229 88be
000001b0: e3af 013e 2d87 6e3e 2ad9 4dbc fa86 97bd
000001c0: 4733 31be c550 06be 21f0 2a3b a012 acbb
000001d0: 7c1b 20bd 96d9 09be c513 cc3e 1caa dbbd
000001e0: a010 1e3d c62a d8be 436e 88be e72a debd
000001f0: affb d63e 2680 e7bd 1e3e 353e 69f3 2fbe
-0.31944278 0.07042504 0.2687774 0.0032794192 0.22701393 -0.26055336 0.16313806 0.14210707
-0.26202226 -0.14685862 -0.15998873 0.23016046 -0.3295834 -0.15709248 0.27423972 0.12336677
0.22234686 0.42457125 -0.12549302 0.32514352 -0.0917087 0.48362395 0.1450927 -0.011063448
-0.32645062 0.028426047 0.24258357 0.36409974 0.0024362463 0.24903633 0.17491928 0.10791722
-0.23114507 0.42282847 -0.2047117 0.15643658 0.072724655 -0.076544486 0.07123519 0.14888903
0.0011201162 0.29532185 -0.2632491 -0.38739815 -0.19003516 0.37195137 -0.2658347 0.002380351
0.108951576 -0.33419657 0.10816311 0.040694397 0.15997715 -0.07031961 0.26411557 -0.29398137
0.32473472 0.31142616 0.2292166 -0.20892784 0.46426007 -0.008277067 -0.19533017 0.36776185
-0.029332424 -0.18858561 -0.054457717 0.29980034 0.1107567 0.08856604 -0.2900318 0.20115887
0.22923183 -0.17866534 0.111949645 0.43196413 0.31213203 0.33924785 0.14067097 0.26511064
0.47055605 -0.062122684 -0.3187218 -0.24039806 -0.20879905 0.36715525 0.036102 0.19973078
0.06220492 -0.012038073 0.0968629 0.3736033 -0.15472671 0.13138315 0.097283706 -0.0797857
0.059669923 0.29318762 0.31567782 0.47738186 0.23859987 0.34737593 0.14003198 0.031872015
-0.009504331 0.09611844 0.168109 -0.26594263 0.12664752 0.23293753 -0.012563983 -0.073987916
-0.17304717 -0.13116749 0.002608307 -0.0052512437 -0.03908871 -0.13461909 0.39858833 -0.10725805
0.038590074 -0.42220134 -0.26646623 -0.10848027 0.41988894 -0.11303739 0.17699477 -0.17182697

fc2.weight f4 [128, 128]
00000000: 7fdb bbbd 94b3 22bb 38d9 8b3d c38b 71be
00000010: 7ee3 f33d 8b89 02bd b6b0 68bd 6874 b1bd
00000020: db32 b93d fe27 2bbd 8ade 363e fddb 02be
00000030: 72fd 3a3d 1f40 cc3b a168 e2bc 934c e5bc
00000040: d434 263c 8722 ce3d c0b0 cfbd fb69 1c3d
00000050: 9966 06be dd36 c0bb bffa ccbd 1190 b13b
00000060: b428 463c 709d 3c3d fc9d 433d 7a40 d33d
00000070: 3d8d 433e 0b9b 03bb f8b6 a33d 4490 593d
00000080: 3006 83be f9bd bf3c 31dd 263d 058e a33d
00000090: 00cb 9e3d f90c ea3c 706d c13d f9d8 0f3e
000000a0: deb1 823c 761a 473d 4003 0f3e 212d 8abe
000000b0: 968a 4a3e 34d5 af3d 44b6 443e d5b8 b73a
000000c0: ea5a 2abd 27c0 85be 88fe 243d e10a bb3d
000000d0: 5d7c 28be 069a 30bc 4d28 f4ba bdba 0c3d
000000e0: 6cf2 253d 4aee 7c3e 863f a73d 9718 56be
000000f0: 898b 983d a899 b23d 0e5f db3c 20da 6cbd
00000100: b0fd 0b3c 74f3 963e 4056 863e 5805 0c3e
00000110: 7fce d23d b0a9 153e bddb d1be c368 5b3d
00000120: 4ade 41be d381 c9bd 9b4c 1a3e 6161 613d
00000130: aa1d 90bc 207a 673c 5002 ca3d 8f4c bf3d
00000140: 9bfb d03d 6d35 683e a9b5 d23d e8de 1a3d
00000150: 6b8c e3bb 8af2 dd3c 4ec6 33bd be87 ee3d
00000160: 1987 26bc ea28 113c e9d2 603d 5cf0 ad3d
00000170: d131 d8bd c8c2 e43d 624e 983d 1e89 e23c
00000180: f40c 4c3e b387 d53c f073 6f3d c9cf 393d
00000190: 13e6 e0bd 6d37 debd de60 1dbe 3b69 97bb
000001a0: 78b9 2cbe 1887 04bd c090 d3bd 2519 95bd
000001b0: 161f b0be 82db d03c de32 723e 0fdd 003d
000001c0: 57db 4cbd bee8 133e f167 803e 156b 483d
000001d0: eca0 6b3d 92cb 1a3e 95ea 5a3c 738f ce3c
000001e0: f9d8 663d 0064 4bbe f13f 72be 0cfe e63d
000001f0: 300d f3bc 0fcd e03b 9f2b 323d 7170 86be
00000200: eb52 d2bd a2b5 ed3c 4b3f 813b 1171 093d
00000210: cef2 133e 6e1d 50be 3f9c 3a3c 8cf9 07be
00000220: fdb2 00be df43 ccbd 5a6c 633e 6808 a9be
00000230: 1da6 ebbe eb75 67be edfe 253e 4cfd dbbe
00000240: 719a f1bc a8b9 313e a907 00bf cccb 983d
00000250: 1730 aabe b094 2f38 7716 cebe c29b f3bc
00000260: 2f87 07bf 0708 413c 18aa 0f3e 7325 3a3e
00000270: e25a 20bd 3380 623c 2834 ca3d 4a22 493e
00000280: 7583 19bd cbb9 a13d 5f06 fcbe c94f 093e
00000290: fbe9 6c3d 0a6e 0fbe 0542 b83c ea8a 5a3d
000002a0: 052e acbd ddc2 9fbc 79bf 4bbe d2a0 5ebe
000002b0: f9fd 1a3e 387b 84bc 4db3 c2be 4d9c fbbe
000002c0: b240 043e a890 b2bd 7e6d d23c 32d7 2f3e
000002d0: 9fc4 f4be 0c73 8c3d 52f1 1a3e eb49 90bd
000002e0: 8347 103e 94ac 4bbd f119 953d 0f25 e3be
000002f0: 6d6f 133d c0c6 ea3c 0c06 45be a1a1 533d
00000300: 2d1a 76be 2fd3 f9bd 10d6 263e 1d93 3c3d
00000310: de9a 58be 1086 2c3d 8121 1dbe d8d6 dc3d
00000320: 45f2 e3be 0f1d b83c 69b4 4a3e 3a37 d23a
00000330: 24cc 283d a503 213e 5f43 6fbb 68d5 333d
00000340: 7fec 113e 7872 2a3d a34c fb3a b05d 90be
00000350: aef9 29be e1ac 37bd b752 cdbe 7f41 b6bd
00000360: 2221 9a3d 785a 7b3d 6576 533d 51cc f73d
00000370: 1045 e53d c3ea de3d fb3d c73d 898f 183d
00000380: 6e14 9fbd 9bcd 313e a382 aa3d 1417 173e
00000390: f20b 82bb 3daf 88bd a9ca 64be 2030 4e3d
000003a0: 6959 e9be 88d2 d23c a235 1dbe b0be 32be
000003b0: 5589 0bbf f46a 093e 3135 113e 31b1 cbbd
000003c0: a0f4 89be 0478 153e e318 d2bd 0f9e 443e
000003d0: 3460 383d c00f e9bd 1a8a 263e d385 b23d
000003e0: b8fa 51be d4d4 f8be 9265 a6be 7983 4d3e
000003f0: f307 153e f7fe 54be 7f03 f03d 35cd 9dbe
-0.09172725 -0.0024826275 0.068285406 -0.23588471 0.11908625 -0.031869452 -0.05680915 -0.08664781
0.09042903 -0.041786186 0.1785833 -0.12779231 0.04565186 0.00623323 -0.027637782 -0.027990615
0.010144431 0.10065179 -0.10141134 0.03818701 -0.13125075 -0.005865915 -0.100087635 0.0054187854
0.012094665 0.04604858 0.047758088 0.10315032 0.19096847 -0.0020081426 0.07993883 0.053116098
-0.25590658 0.023406016 0.04073829 0.079860725 0.07753563 0.028570639 0.09444702 0.14047612
0.015953954 0.04860922 0.13966084 -0.26987556 0.19779429 0.08585587 0.19210154 0.0014016876
-0.04159061 -0.26123163 0.040281802 0.09132934 -0.16453691 -0.01077891 -0.0018627733 0.034357775
0.040514395 0.24700275 0.08166413 -0.20907818 0.07448489 0.08720714 0.026778724 -0.057825208
0.0085443705 0.29482615 0.2623768 0.13673913 0.10293292 0.14615512 -0.4098796 0.053566705
-0.18932453 -0.09839215 0.15068285 0.05502451 -0.01759227 0.014128238 0.09863722 0.09340774
0.1020424 0.2267663 0.10288555 0.037810236 -0.0069442294 0.02709319 -0.04389029 0.116469845
-0.010164046 0.008859852 0.05488864 0.084931105 -0.10556377 0.11169964 0.07436825 0.027653273
0.19926816 0.026065683 0.058460176 0.045364175 -0.10981383 -0.108504154 -0.15368983 -0.0046206987
-0.16867626 -0.032355398 -0.10330343 -0.072801866 -0.34398717 0.025495294 0.23652217 0.031460818
-0.050013866 0.14444253 0.250793 0.048930246 0.057526514 0.15116718 0.013361593 0.025214886
0.056359265 -0.19862366 -0.23657204 0.11278924 -0.029669374 0.0068603824 0.04349863 -0.2625766
-0.102697216 0.029017273 0.0039443127 0.033555094 0.14448091 -0.20323727 0.011389791 -0.13278788
-0.12568279 -0.09973883 0.22209302 -0.33014226 -0.46025172 -0.22603576 0.16210528 -0.42966688
-0.029492589 0.17355978 -0.5001169 0.07460746 -0.33239815 4.1861727e-05 -0.40251514 -0.029737357
-0.5294065 0.011781699 0.1402973 0.18178348 -0.039149173 0.01382451 0.09873229 0.19641986
-0.037478883 0.07896765 -0.4922361 0.13409342 0.05784033 -0.1400682 0.022492418 0.053355135
-0.08407215 -0.019502098 -0.1989726 -0.21741036 0.15135945 -0.016172037 -0.3802742 -0.49142686
0.12915304 -0.08718997 0.025686976 0.17171934 -0.4780626 0.06857881 0.15131119 -0.07045349
0.1408978 -0.04972513 0.072803386 -0.4436421 0.035994936 0.028659225 -0.19240588 0.051667813
-0.24033423 -0.12198483 0.16292596 0.046038736 -0.21152827 0.04212004 -0.15344812 0.10783166
-0.44520774 0.022474794 0.19795384 0.0016038187 0.04121031 0.15724047 -0.0036508662 0.043904692
0.14250372 0.041613072 0.001917262 -0.28196478 -0.16599151 -0.044842605 -0.4010217 -0.08899211
0.07525851 0.061365575 0.05162658 0.12099517 0.11194813 0.10884621 0.09728619 0.03724626
-0.077675685 0.17363589 0.08325698 0.14754897 -0.003968709 -0.06674049 -0.22342934 0.050338864
-0.45576027 0.025735155 -0.1535249 -0.17455554 -0.5450643 0.13419706 0.14180447 -0.09945906
-0.26944447 0.14596564 -0.10258653 0.1920092 0.04501362 -0.11379957 0.16263619 0.08716931
-0.20505798 -0.48599875 -0.32499367 0.20069684 0.14553814 -0.20800386 0.11719417 -0.30820623

fc2.bias f4 [128]
00000000: c83a 1d3c 3715 0d3d f81b 81bd f73c 96bd
00000010: 539a bebd 872f 9c3c 4555 f8bc 9089 313c
00000020: 58f3 c93c de8a e13c 01b8 623d 407c 563d
00000030: 9b15 65bd 0b9a 303d 5cc3 543d 0cdc ee3d
00000040: 066f e6bb 46c4 bfbd b7e7 873c 51a1 283e
00000050: 7f8a 4c3d 2eb8 4fbd f69a a23d 7a28 36bb
00000060: 8aab 1e3e cc92 023e df26 943d 88a4 f93c
00000070: 29cf 853d 7ae5 3e3d e57d 67bd 501b dd3d
00000080: 8f13 03ba 6b15 e33d f421 533d f9c5 003e
00000090: b216 653d e094 02bb 4d26 8dbd 66a0 043e
000000a0: 29c9 6c3c 8187 893d 670c 363d 8502 4b3d
000000b0: ea67 51bd 3cc3 103e 4490 1b3e 39d7 e63d
000000c0: 0479 d93d b08f c53c 1aa8 a1bc 3b37 8c3d
000000d0: 5ff6 71bc c25e e03d 78ba af3d 3c77 8dbc
000000e0: 57c0 8dbb 85e1 b1bd 6fdd 243b e630 113e
000000f0: d848 c83d 71b1 fa3d 4849 e33d 616b 4dbd
00000100: 9878 883d c0d1 b83d 1db7 133e 7092 113e
00000110: 2d9f 99bd b30f 5eb9 f3a5 dcbc 7120 11bc
00000120: 1e4d c13d a9cc d0bd 084d e13d 77be 793c
00000130: f386 97bd 7d11 74bc 2fbb f43d e8d3 053e
00000140: 98e0 2e3d bb43 223b e8d4 0f3e 5210 ad3c
00000150: 2970 9ebc 9b05 ff3d fd2b 073e 1c72 723d
00000160: 8697 133c 7f87 443e 3ab0 f73c d347 363d
00000170: 60b2 1e3e 8221 903c 7a9a 77bd b104 0a3d
00000180: 78b5 b13d c62f e23d 2f4d 80bd ae6f 223d
00000190: df99 39bc 2408 283d c1ff 0a3d 75f8 f93c
000001a0: e89d 37bd ed7b 143e 5bdb 16bd 86b7 3b3d
000001b0: 8e48 59bd b15c 87bc ad74 863c 2228 9abd
000001c0: f677 053c 3c3c 96bd 6cbd 093d eb77 d6bd
000001d0: ca01 92bd 893d c63c 8125 c53d 799a 813d
000001e0: 935e b53d 8d1a bebd 1494 b23d ea49 f1bc
000001f0: e1ad fb3d 1b21 0a3e 581c 0a3e 4e05 abbd
0.009596534 0.03444406 -0.06304163 -0.07335847 -0.09306779 0.019065632 -0.030314097 0.01083602
0.024652168 0.027532037 0.05535126 0.052364588 -0.055928808 0.043115657 0.05194412 0.11663064
-0.007032278 -0.09363608 0.016589982 0.16467787 0.049936768 -0.050712757 0.07939713 -0.0027795122
0.15495124 0.12751311 0.072339766 0.030473962 0.06533653 0.046605565 -0.056516547 0.10796225
-0.0005000168 0.110880695 0.051546052 0.1257552 0.055929847 -0.0019925162 -0.06892071 0.12951812
0.014452257 0.067152984 0.04444542 0.04956295 -0.05112449 0.14136976 0.15191752 0.11271519
0.10618785 0.024116367 -0.019733477 0.06846472 -0.014768212 0.109555736 0.08580488 -0.01726877
-0.004325907 -0.086855926 0.0025156399 0.1417881 0.09779519 0.122408755 0.11097962 -0.050151233
0.066636264 0.09024382 0.14425321 0.14216018 -0.075010635 -0.00021177418 -0.0269346 -0.008857832
0.09438537 -0.10195286 0.11001021 0.015243164 -0.073987864 -0.014896748 0.11949765 0.13069117
0.042694658 0.0024759609 0.14046061 0.021125946 -0.019340592 0.12452241 0.13200374 0.059190854
0.009008294 0.19192313 0.030235399 0.04450209 0.15497732 0.017594103 -0.060450055 0.03369588
0.086771905 0.11044268 -0.062647216 0.039657287 -0.01132819 0.04102339 0.033935312 0.030513981
-0.044828326 0.14500399 -0.036830287 0.04582932 -0.05304771 -0.01652369 0.016413057 -0.07527186
0.008146277 -0.073357075 0.033627912 -0.10472091 -0.071292475 0.024199264 0.09626294 0.063282914
0.08855929 -0.09282408 0.0871965 -0.02945419 0.12289024 0.13489191 0.13487375 -0.08350621

actor.weight f4 [4, 128]
00000000: 3bdb 32bc 1e3a bcbe 413c f1bb 6350 8dba
00000010: 4fe3 ecba 6943 543e fc0d 833e 375f 0bbe
00000020: cec9 dfbe f491 543c 580e a73e 2186 113e
00000030: 8a62 e7bc 8d37 783d 03db 613d 5d8a 82be
00000040: a4c7 29bf dfd0 62bc 9af5 8bbd 4aeb ff3d
00000050: 8730 37bd f31b 85bd 19b6 183e beff 0e3e
00000060: b9d4 41be 9ba0 4e3c c0b4 693d f664 763d
00000070: c2ab 293e 05c5 e5bc 1ba9 173d 73e8 d8be
00000080: 7548 0f3e ef3c 3e3e 5e9a b0be 27d2 d9bd
00000090: b319 9c3c d8de 8c3e adbe 5b3c 5c9e bcbd
000000a0: c700 9abc 6c9d 05bf 6633 2f3d 566e 483e
000000b0: 5e4b babd 627d cc3d 87f2 a2bd a861 783e
000000c0: 49b5 ce3b 5ec5 b13d aaae a3bd acb2 aebe
000000d0: b07e 003e 7171 ca3e 59a6 1d3d 7845 e93d
000000e0: 4e82 9d3c 421e 463d 18c3 2a3e 0146 87be
000000f0: 4a3b 85be c93e 203d 4693 2e3e aafe e6be
00000100: 7d24 293e 2a16 2d3d 1573 2c3c 60d8 18bf
00000110: 48e8 9dbd 9dcc 703d 341d 73bb 7443 e23c
00000120: 388b 623d b3de 123d 1e65 113d f051 50be
00000130: cbd8 01bb e61c f03d 2633 033c b40b 10be
00000140: 3439 6cbe 45bd 32bd cac9 03bd 5b7c 9dbd
00000150: 2fad 03bc 6864 bb3d 90c8 a03c fc05 6e3d
00000160: 4c9a 6c3c 69c8 8cbe a2a9 dcbe e54c 3a3e
00000170: 0c0a 90be bc01 c23e d032 4e3d fd6a 81bd
00000180: 32f7 c0be 94dd 8e3d b6be ed3b 2c37 6c3e
00000190: 5b61 01bd 1034 da3c 566a 033e be8b 023e
000001a0: 80c8 bfbc 781f 02bf 8aaa df3c a006 343d
000001b0: 0142 2e3d a38c 973d 87ca 6ebd 57f8 18bd
000001c0: 728b ad3c 235d d1bc 7b33 8abe 1822 443d
000001d0: ae54 bebc be71 ab3d 5201 79be 839e 28bf
000001e0: 9b0f 223e 59bc 2c3d ae70 7dbe b3c6 bd3d
000001f0: 5872 f53d 4902 a43d e710 c2be d078 663c
00000200: d5e3 8cbd 6320 6bbf 7319 9bbb 8159 9abd
00000210: 90c9 1ebe 5d26 123f 7a3d 6c3e 8724 00bf
00000220: 53ae c93c b118 3bbb 9d71 583e 8d84 ed3d
00000230: e7c3 2a3d c98c 603e 48e9 89be 583d 56bf
00000240: 138d 9fbe b384 093d 3515 e43c 7b88 7d3e
00000250: 1b43 92bc 047c 313d 98b9 fc3d f1c8 d63d
00000260: ab16 f6be c293 2fbe 6c4c a4bd 9e5a 74be
00000270: debd a2bd 86c5 32be ffc8 7dbd e469 f03d
00000280: 7173 3b3d 4ffb 143f 49aa dcbe 1e10 1b3e
00000290: 6fe7 4abd 7bdb 513c fb09 abbd 9474 3ebe
000002a0: c9d0 a2bc 254f 1cbf 4d27 c53d 2be2 c53b
000002b0: 94cf 4c3d 163c ad3c 315e 53be b653 153e
000002c0: b658 573d 49db 3ebd e6e9 2c3d 6a87 e5bd
000002d0: 9a08 82bd 0acc 983e 1998 8bbd be67 1f3d
000002e0: 957a 523d 63a5 963d ff32 38bd 6f84 97be
000002f0: 632c b0bd 2c29 9abd ad0d 113f c37e 003e
00000300: dd02 063e 3e23 b23d 5038 19be 3676 6dbe
00000310: a3e3 8c3d d430 de3d 0011 9fbd 87a5 853d
00000320: 2368 dcbe b450 b4bd 09f4 b03d eb04 6e3e
00000330: dd41 9ebd 35a0 02be 8dc7 12be 20c5 32be
00000340: 7c67 2ebe e1f0 873c d3ea ee3c e14e cfbd
00000350: 5a07 db3c dc5a c03d 1b71 dc3d c276 1fbd
00000360: e86a e5bd 063b afbe f754 e0bd c545 af3d
00000370: 0a9d 34bf 5868 0f3f ebc6 7c3c c17b 863d
00000380: 8fc6 d2be 0f0d d2bc 4851 8f3d 7919 5f3e
00000390: 0525 9abd a917 b8bc fe67 2abd ee16 92bd
000003a0: 09f5 a0bd a64e 603e 8359 213d 9e38 46b9
000003b0: 8b03 64bd 6b9e f4bd a3a7 013c 71e9 363c
000003c0: 65ec 0c3e 7cba 80bd 47b1 06bf bcd5 0dbe
000003d0: 0baa 703d ed18 9b3d 3eb6 b13e 2998 53bf
000003e0: 1904 16bc 351c 853d 93fd 833d ad21 8bbd
000003f0: 77fa 7d3e 0266 06bf bd16 ae3e 91ff ed3c
-0.010916526 -0.3676309 -0.007361919 -0.0010781403 -0.0018073114 0.2072884 0.25596607 -0.1361054
-0.43708652 0.012974251 0.3262813 0.14211322 -0.02824523 0.060599852 0.055140506 -0.25496188
-0.6632025 -0.013843744 -0.06833954 0.1249605 -0.044724014 -0.064994715 0.14913215 0.13964745
-0.18928804 0.0126115335 0.057057142 0.060154878 0.16569427 -0.028048048 0.037026506 -0.42364845
0.13992484 0.18577932 -0.34492773 -0.106357865 0.019055223 0.27513766 0.01341216 -0.09209892
-0.018799199 -0.5219333 0.042773627 0.1957334 -0.090964064 0.099848524 -0.07956415 0.24256003
0.006308232 0.08680223 -0.07992299 -0.3412069 0.12548327 0.39539674 0.03848872 0.11390203
0.019227173 0.0483687 0.16675985 -0.26420596 -0.26021796 0.039122377 0.17048368 -0.45116168
0.16517825 0.042257465 0.010525485 -0.5970516 -0.0771032 0.058788884 -0.0037096264 0.027620055
0.05530855 0.035856914 0.035496823 -0.20343757 -0.0019813057 0.11724262 0.0080078 -0.14066964
-0.23068696 -0.043637533 -0.032174863 -0.076897345 -0.008036896 0.0915001 0.019626886 0.058111176
0.014441084 -0.2749665 -0.4309817 0.18193395 -0.28132665 0.37891948 0.050341427 -0.063192345
-0.37688595 0.069758564 0.0072554005 0.23067921 -0.031586986 0.026636153 0.12833533 0.1274862
-0.023411036 -0.5082927 0.027302999 0.04395163 0.042543415 0.07399871 -0.058298614 -0.03734621
0.021184657 -0.025557106 -0.269924 0.047884077 -0.023233738 0.08371304 -0.2431691 -0.6586687
0.15826266 0.04217181 -0.24750015 0.092664145 0.119847 0.08008248 -0.3790352 0.01406689
-0.06879393 -0.91846293 -0.0047332584 -0.07536603 -0.15506577 0.5708979 0.23070326 -0.50055736
0.024619257 -0.0028548653 0.2113709 0.11597548 0.041690733 0.21928705 -0.26935792 -0.83687353
-0.3116232 0.033573817 0.027842144 0.24759094 -0.017854264 0.04333116 0.12340087 0.10487545
-0.4806417 -0.17146209 -0.08022389 -0.23862693 -0.079463705 -0.17458162 -0.061959263 0.11738947
0.04576439 0.58195966 -0.43098667 0.15142867 -0.04953712 0.012808676 -0.08351513 -0.18599159
-0.019874947 -0.61058265 0.09626637 0.006038924 0.05000265 0.021146815 -0.206414 0.14582714
0.052574836 -0.046595845 0.04221525 -0.11207469 -0.06349297 0.2984317 -0.0681612 0.038917296
0.051386435 0.07355764 -0.04497051 -0.29593226 -0.08602216 -0.07527384 0.5666149 0.12548356
0.1308703 0.08698128 -0.14962888 -0.23189625 0.06879356 0.10849157 -0.07766914 0.065257125
-0.430482 -0.088044554 0.08640296 0.23244064 -0.07727406 -0.12756427 -0.14333935 -0.1745801
-0.17031664 0.016594352 0.029164707 -0.10122467 0.026736904 0.0939233 0.10763761 -0.038931616
-0.112020314 -0.3422472 -0.10953706 0.08558229 -0.7055212 0.5601859 0.015428285 0.06566573
-0.41167113 -0.025640992 0.06997925 0.21787061 -0.07526592 -0.02247222 -0.04160308 -0.0713328
-0.07859237 0.21905002 0.039392006 -0.00018903843 -0.05566744 -0.11944278 0.007913503 0.011164055
0.13762052 -0.06285569 -0.52614254 -0.13851064 0.058755916 0.075731136 0.34709352 -0.8265405
-0.00915625 0.06499521 0.0644485 -0.067935325 0.24802576 -0.524994 0.34001723 0.029052528

actor.bias f4 [4]
00000000: 96e7 753d 6784 d2bd 84ae 8f3d f6bf b13c
0.06003531 -0.1027916 0.07015708 0.02169798

critic.weight f4 [1, 128]
00000000: ec72 09be 516f f73c dc9b eabc c32b 333d
00000010: 4ac2 82bd 7dcd 93bd 8627 09be fc5d 10be
00000020: 1166 5ebe 5028 7d3d a776 19be 53d0 15be
00000030: 6789 cd3c 9245 1cbe 654b febd edb3 c5bd
00000040: be62 ff3e cace 3f3d 079e 12be 9670 7abe
00000050: b5d7 0abe 62c7 a33c 1833 23be 698e 48be
00000060: d6fd de3d 38b5 03be 939c 35be 81d2 edbd
00000070: 7e47 1bbe 3b93 2dbe e1aa 303d d470 b5bb
00000080: 5386 16be cfff 423e 8dff 76bf e31c 2cbe
00000090: fc9d 2bbe a5e5 48bd 2616 a43d 0466 8abe
000000a0: 0a0e e23c 8036 133e 1b23 05be 8aea 0bbe
000000b0: 2868 a8be a3d6 2dbe 5f06 13be 464e 15be
000000c0: 5aed 24be ee48 793d 601d a539 ccdb aabd
000000d0: 37e7 18be f8e6 cabd b04d 22be 48e5 17be
000000e0: 579e 7b3d 6dca ba3d 3300 02be 39ed 4cbd
000000f0: 6955 4bbe e0cc 22be e357 1f3d 98e3 4a3f
00000100: 653a 03be f03d 12be c29a f5bd 7e6a 273f
00000110: 04e7 7c3c 446d 29be d889 07be 4d11 a23c
00000120: 4ffb 9fbc c5f0 2a3c 7086 f9bd 0f09 1e3f
00000130: b665 143d a0b3 3abe 0ee5 12be c966 f5bd
00000140: 843b 4c3e 25fc 683c 2bc5 15be 3f84 55be
00000150: 51e9 1abd a7b6 d5bd 27cc 02be e8bd 2fbe
00000160: 448e d3bd e3d9 a83e 234e 85bf ac7b 14be
00000170: fa9b 593e dc3b 703e 277c 033e 51d4 18be
00000180: ca93 37bf 9fa3 46be 8d93 b7bb 1733 c7bd
00000190: 9cd3 40bd 0f9a 2e3c b53f 153e d63a 42be
000001a0: c7d2 923c 0464 e13e d03e 5c3d 2ba0 8d3d
000001b0: e8cd 373d 36ca 2ebe 83ab 643c f561 cf3c
000001c0: e863 10be e0a8 483d 5bee 1abf d0b0 0f3e
000001d0: fd59 5f3b ba80 923d 9f71 ff3d 5d1e 563f
000001e0: eafd 0cbe 5e64 563d 6b9a 98be e74c 203d
000001f0: 9f9d e6bd 9b46 1c3e 6f27 b23f 4a4b 23bd
-0.13422745 0.030204447 -0.028638773 0.043742906 -0.06384714 -0.07216928 -0.13393983 -0.14098352
-0.21718623 0.061806023 -0.14986669 -0.1463025 0.025089933 -0.15260914 -0.12416724 -0.09653459
0.49880022 0.04682807 -0.14318095 -0.2445701 -0.13558848 0.019992534 -0.1593746 -0.19585575
0.10888259 -0.12862098 -0.1773551 -0.11612416 -0.15163991 -0.16950695 0.043131713 -0.005537132
-0.14699678 0.19042896 -0.9648369 -0.16807894 -0.16759485 -0.04904713 0.08012037 -0.27030957
0.027594585 0.14376259 -0.13001673 -0.13663688 -0.32891965 -0.16976409 -0.14357899 -0.1458064
-0.16106167 0.060860567 0.00031493139 -0.08342704 -0.14931951 -0.09907335 -0.15849948 -0.14833558
0.0614303 0.09120641 -0.12695388 -0.05003092 -0.198568 -0.15898466 0.038902175 0.7925353
-0.12815244 -0.1428144 -0.11992408 0.6539687 0.015435938 -0.16545588 -0.13236177 0.01978364
-0.019529013 0.0104333805 -0.12183845 0.6173257 0.03622981 -0.18232584 -0.1434519 -0.11982495
0.19944578 0.014220272 -0.14625995 -0.20851229 -0.037820164 -0.10435229 -0.1277319 -0.17162287
-0.103298694 0.32978734 -1.041447 -0.14500302 0.21250907 0.23460335 0.12840329 -0.14924742
-0.71709883 -0.19398354 -0.005602306 -0.097265415 -0.047076806 0.010656848 0.14575084 -0.18967757
0.017922772 0.44021618 0.05377084 0.06915315 0.044874102 -0.17069325 0.013956907 0.025315264
-0.14100611 0.048989177 -0.6051995 0.14032292 0.0034080737 0.07153459 0.124728434 0.8364008
-0.13768736 0.05234181 -0.29805312 0.03913584 -0.112605326 0.15261309 1.3918284 -0.039866723
