dqn_model.pth (torch, 75356 bytes, 6 tensors)

fc1.weight f4 [128, 8]
00000000: 6b2f c83f 02ce 17be 0a0b 1c3f 6d14 65bf
00000010: bfb6 99bf 0932 aabf 2ffb adbd 5fe6 c8bf
00000020: a485 96be 3102 13bf ed4a 2040 c91d d9bf
00000030: 0abf a1bf f9cd 253f 8536 cebf 0b3e 8fbf
00000040: 040f af3e a76a c5bf 8266 1f3e 9f7e 62bf
00000050: 0fd7 5cc0 27fb 68bc fd12 ac3e e45e d8bf
00000060: 5030 ed3c c7da 97bf 4689 573f 9fa5 f9bf
00000070: 96b3 3ebe 99f9 523e 6257 5c3f 00e8 40c0
00000080: 47a1 893f 78b2 51be 5cb0 b2bd 5e19 85c0
00000090: 722e 6440 e0c3 8c3f 0ac9 8ac0 a6c2 f13f
000000a0: 1f58 a53f b501 523f e46e bdbc 5a80 36bf
000000b0: 047b 73bf 9a3d b1bf fbeb 2cc0 672a 5d3f
000000c0: 7a79 2dbb 4142 51bf 346e d3bd dee9 c63b
000000d0: 8e1d f6bf a1da fc3f 822f af3d 58af d0bf
000000e0: a266 d9bf 1bf9 7dbe 867e 33be ece2 9bbf
000000f0: a4e2 c4bf df9c 833e 0e0f 313f e102 41c0
00000100: 7267 d43f c7de 86c0 3a0f 3f3f 1056 1dc0
00000110: c2b4 d03f a3cd 18bf 9504 37bf 6605 c83f
00000120: 6c50 c3bf dd77 b73c 29e3 943e 22ae 07c0
00000130: 6a86 633f cf9e f7bd 662b afbf f3b6 d83e
00000140: 658c 833f e66a 51be 62be a8bf 1ef7 e9bf
00000150: 9a84 cbbf 87c2 2e3e 98b3 81bf 9e9b c5bd
00000160: 879d 63bd 3f94 f63e c02d 4d3f 8d01 bdbe
00000170: cecf d3bf 872e 72bf 93cc 90bf 5914 c3bf
00000180: 4aa3 b63f 4513 13bf d30a aabf 73b6 30be
00000190: a709 22bf 2dcc cfbf a993 63bf d9a4 853f
000001a0: 27c4 1240 97a4 1dbf 7b01 0dc0 1c40 19bf
000001b0: df62 64bf 92a9 ebbf ee27 17c0 71fa dcbf
000001c0: f438 4a40 4672 853e 6e35 37bf 5708 c23f
000001d0: f920 a2be 3cca d2bf 6006 c9bf 7653 e2bf
000001e0: 8195 873f ef35 9f3e a66e 763f c48e 333f
000001f0: 3bef 083f 7dd3 0cbf 807f 0540 5dbc 4ec0
00000200: b6db c13f a938 ab3f c87d 93bf 30c0 c03e
00000210: 72b6 0b3f 31a9 3e3e f95e 39bd 587f e4bf
00000220: fdbe 83c0 5297 ff3e 783a bbbf ca3e e03f
00000230: 2d69 8c3f 9406 0ebf aa46 51c0 706f 34bf
00000240: 62bf 13c0 502f 823f 55ff e73f 40ca 33bf
00000250: cfa6 40bf 1ff4 0d40 925b 263e ee0a 103f
00000260: 843a d33b 02d8 113f cf8e d9bd f259 fe3f
00000270: 5ff0 14c0 7d74 07bf 2665 f73e d264 1ac0
00000280: 04ec 0e40 4ae9 f3be eb60 7bbe 6975 c1bf
00000290: db68 c0bf 8fcb a63e dafc 6d3f 45f4 4bbe
000002a0: 798d a93f bf07 babe c1c7 81be 44ca 3abf
000002b0: 12ee e3be d8b4 d53e b9e3 193f ff24 c6bf
000002c0: ec52 803e 8c6c 51bf 06da 4f3e d7c0 783d
000002d0: f9d8 6abf da9b 1a40 f48b 24bf c908 0a3e
000002e0: 3adf 7fbf d642 38c0 ad21 913f 1432 6ebf
000002f0: ed64 573f 302d d93f d84c e83f 8214 513f
00000300: d863 a840 a3a3 23bf 87ae e33f 02c7 14c0
00000310: 93d8 8abd 2fd5 96bf 8c4c 9d3e 27f2 1dc0
00000320: a9f2 b83f 994c 1fc1 7e18 81c0 d930 c3bf
00000330: 8261 4b40 b2a6 173f 2d3e a7be 318c 8d3f
00000340: d706 20c0 ce6e 2ebf 4eea b9bd b892 a4bd
00000350: 8b1f 1840 3b0f dc3e 87bd a0bf b2ab 89bf
00000360: 66d1 103f 402c d7bf 5d0f d6bf a4f5 12c0
00000370: e099 943e 9f67 a93f e292 753f a85e 1dc0
00000380: ee2f 6740 7bd0 be3e 5f1e 2dc0 b85a 4cc0
00000390: d961 883f c58d b53e e864 cdbf 2410 aabf
000003a0: 1eb7 4a3e 6d26 85be 02a1 e13e 5153 22c0
000003b0: 99d2 16bf d84f 7b3e 4c39 c33e c874 443e
000003c0: 2a4b 43c0 489e f1bf 1ca6 1340 2bd9 583f
000003d0: 4390 3cc0 63f8 a23e c429 433f 96b7 ec3e
000003e0: f75d 993d fe5e 823f 8891 77bf 9cf1 3a3e
000003f0: 3e0b 6a40 a155 52bf d03b 40c0 477d 853f
1.5639471 -0.1482468 0.60954344 -0.8948429 -1.2008895 -1.329652 -0.08495175 -1.5695304
-0.29398835 -0.5742522 2.504573 -1.6962215 -1.2636425 0.64767414 -1.6110388 -1.1190809
0.34191144 -1.5423173 0.15566447 -0.8847446 -3.4506261 -0.014220036 0.33608237 -1.6903958
0.028953701 -1.186364 0.8419384 -1.9503669 -0.18623194 0.20603026 0.86070836 -3.0141602
1.0752343 -0.20478237 -0.08725044 -4.1593466 3.5653348 1.0997276 -4.337041 1.8887527
1.2917517 0.82033855 -0.023124166 -0.712896 -0.9510958 -1.3846924 -2.701903 0.86392826
-0.002647011 -0.8174172 -0.10323754 0.0060703596 -1.9227769 1.975422 0.08553983 -1.6303511
-1.6984446 -0.24802057 -0.17528734 -1.2178626 -1.5381665 0.2570562 0.69163597 -3.0158007
1.6594069 -4.2146945 0.7463261 -2.4583778 1.6305163 -0.59688777 -0.71491367 1.5626647
-1.5258918 0.022396022 0.2907956 -2.1200032 0.88876975 -0.12090837 -1.3685119 0.4232708
1.027722 -0.20450935 -1.31831 -1.8278539 -1.5899842 0.17066394 -1.0132933 -0.09648822
-0.05557015 0.48159978 0.80147934 -0.36915246 -1.6547792 -0.94602245 -1.1312431 -1.5240585
1.4268582 -0.5745128 -1.3284553 -0.17257099 -0.6329598 -1.6234185 -0.88897187 1.0440933
2.2932222 -0.6157927 -2.2032154 -0.5986345 -0.89213365 -1.8411124 -2.361812 -1.7263929
3.1597261 0.26063746 -0.715659 1.5158795 -0.3166578 -1.6467967 -1.570507 -1.768172
1.05925 0.31095836 0.96262586 0.7013972 0.53490037 -0.55010206 2.085907 -3.2302468
1.5145175 1.3376666 -1.152276 0.37646627 0.54575264 0.18619229 -0.04525659 -1.7851362
-4.117064 0.49920136 -1.4627218 1.7519162 1.0969597 -0.5547879 -3.269938 -0.7048254
-2.308556 1.0170689 1.8124796 -0.70230484 -0.7525453 2.218025 0.16245869 0.5626668
0.0064461846 0.56970227 -0.10622942 1.9871199 -2.327171 -0.5291212 0.48319358 -2.4124036
2.2331553 -0.47638923 -0.2454869 -1.5113956 -1.5031999 0.32577178 0.92963946 -0.199174
1.3246299 -0.36334035 -0.25347713 -0.7296488 -0.4451757 0.41739535 0.601131 -1.548004
0.25063264 -0.81806254 0.20298013 0.06073078 -0.91737324 2.4157624 -0.6427605 0.13479914
-0.9994999 -2.8790793 1.1338402 -0.93045163 0.84138376 1.6966915 1.8148451 0.8167192
5.262188 -0.63921565 1.7787637 -2.3246465 -0.067795895 -1.1783808 0.30722463 -2.4679048
1.4449054 -9.956201 -4.03424 -1.5249282 3.1778264 0.5923873 -0.32664624 1.1058408
-2.5004175 -0.68137825 -0.09077893 -0.08035797 2.3769252 0.4298037 -1.2557839 -1.0755522
0.56569517 -1.6810379 -1.6723439 -2.2962427 0.29023647 1.3234748 0.9592725 -2.4589024
3.6123004 0.37268433 -2.7049787 -3.193037 1.0654861 0.35459724 -1.6046419 -1.3286176
0.19796416 -0.2600588 0.44068152 -2.5363352 -0.58915097 0.24542177 0.38129652 0.19185174
-3.0514627 -1.8876429 2.3070135 0.8470637 -2.946305 0.3183013 0.76235604 0.46233815
0.074886255 1.0185239 -0.9670644 0.18256229 3.6569362 -0.8216191 -3.0036507 1.0428857

fc1.bias f4 [128]
00000000: d0c0 a03c 8fce 55be 22f8 00be 5cf2 fe3d
00000010: 7dba 94bf cd0f 58bf 4594 02c0 1885 7f3f
00000020: b7cd dbbf c43e 96be 7a23 f33e 0632 7abf
00000030: 0518 823d 9421 a03d 8d19 02c0 05f8 c7be
00000040: 040a e6bf c56f 88bf 47cb dbbe 416b c1bf
00000050: 64e6 5fbc ae1b ad3f 87ed 8a3f d05c aabf
00000060: 6bc7 5d3d a6d4 ca3f b0e8 3f3f 27d9 71bf
00000070: 0b4c 11bf c7be a63f 7497 ddbe e106 83be
00000080: 078d 04bf cb11 5dbf e50c 02c0 493d be3e
00000090: e674 373f e504 97bc 2ca9 1c3f 4dde b4bf
000000a0: 68d4 5fbf b89d e03f c0de 69be 042f 603f
000000b0: afc3 2b3f 6e44 aabf 8e08 05be 8fc6 c53f
000000c0: ed96 b73b 67d4 9b3d f231 9e3e e75c d7be
000000d0: f996 523f db47 873e c8ab c2bd 62bd 9abf
000000e0: a3d0 a13e b35f 4d3f 44ea b2bf d5a7 35bf
000000f0: a32d bcbf 3289 873f 0a29 f1bf f562 a73e
00000100: c33d 163f 9a94 cabf 7159 883f 4511 a73d
00000110: 7a57 af3f ee67 963e 9b42 52bf dacb 2cbf
00000120: 60cb ba3f ba92 05bf 65c7 42bf 26a4 0abf
00000130: 4416 c3bf b750 003e 982c b3bf fcb4 553f
00000140: 17a7 57be 8a10 99bf a318 c13f a3fe 82be
00000150: b92c 413f ed62 be3f a13d fb3e fc3c 91be
00000160: e9e7 03be a46c 8f3f 22e6 14bf 4b28 73bf
00000170: 10eb bfbe f93e 053f 0cd9 9cbe 96d4 c53f
00000180: 3005 7fbd 2857 7bbf e6ab f9be 36ff 3abe
00000190: 51d6 a6bf ccb4 bcbf 7c4f 86bf 0b67 e53d
000001a0: 7aa8 d03e 1866 4e3f 666f 98bf 99a1 283e
000001b0: bc1b 05c0 de35 b4bf d34f 183e be66 2d3f
000001c0: deb3 a73e 2b52 0740 399d 923f f337 c6bf
000001d0: 1d77 8c3f f4ba cabf cfd3 6ebd 099f d2bf
000001e0: 0784 8abf 8401 f4be 45e2 d0bd 143f 05be
000001f0: 1e55 40bf 12c6 b83e 0508 b23f dbfb 683e
0.01962319 -0.20879577 -0.12594655 0.1244857 -1.1619412 -0.8439911 -2.0402997 0.9981246
-1.7172154 -0.2934476 0.47488004 -0.9773258 0.063522376 0.078189045 -2.0328095 -0.3905641
-1.7971807 -1.0659109 -0.42928526 -1.5110856 -0.013665769 1.3524072 1.0853738 -1.3309574
0.054145258 1.5846145 0.7496443 -0.94471973 -0.5675666 1.3026971 -0.43279612 -0.25591186
-0.5177769 -0.86355275 -2.032037 0.37156132 0.7166275 -0.018434951 0.61195636 -1.4130341
-0.8743348 1.7548132 -0.22838879 0.8757174 0.67095464 -1.3302133 -0.12991545 1.545122
0.0056027086 0.07608872 0.3089748 -0.42063066 0.82261616 0.2642201 -0.09505421 -1.2089045
0.3160449 0.8022415 -1.3977742 -0.70959216 -1.4701427 1.0588744 -1.8840649 0.32692686
0.5868799 -1.58266 1.0652295 0.08157591 1.3698571 0.29376167 -0.8213288 -0.6749855
1.4593315 -0.5217701 -0.760855 -0.5415672 -1.524117 0.1253079 -1.3997984 0.83479285
-0.21059833 -1.1958172 1.5085644 -0.25584897 0.75458866 1.487394 0.49070457 -0.2836684
-0.12881435 1.120503 -0.58163655 -0.9498336 -0.37484026 0.52049214 -0.30634344 1.5455501
-0.062260807 -0.98179865 -0.4876396 -0.18261418 -1.3034154 -1.4742675 -1.0493007 0.112012945
0.40753537 0.8062453 -1.1908996 0.16467895 -2.0798178 -1.4078939 0.148742 0.677349
0.32754415 2.1143901 1.145423 -1.5485824 1.097385 -1.5838304 -0.058307465 -1.6454784
-1.0821542 -0.47657406 -0.101994075 -0.13012344 -0.7512988 0.36088616 1.3908697 0.22752325

fc2.weight f4 [128, 128]
00000000: 4916 1abf 9696 2abe 93c1 41c0 594e 383d
00000010: 5b99 36c0 5008 99bf 97f2 05c0 5866 90bf
00000020: 9cd3 8d3f 7ec1 823f 9a99 073f 9370 cdbf
00000030: 9f59 83bf 29a7 3840 2187 2040 57b9 763f
00000040: 5347 a3bf b473 bdbf 8ff0 edbf aed7 2dbe
00000050: e983 1dc0 ef03 3140 94e3 1fc0 0e06 b5c0
00000060: 027c 17c0 accd 0ebf 5adc 693f 125a 35c0
00000070: 2823 81bf 0254 38c0 14bb 8abf 90d5 4ebf
00000080: 6813 5c3e 7971 19c0 9575 09c0 37b3 8d3f
00000090: c26a 673f 9d1e 71be 27fa f13f 340a 11bf
000000a0: 193a 2dc0 3b2b 443f 67bc 2ac0 78a8 c23d
000000b0: 5d70 27c0 5de9 d1bf eea2 923e fc01 8e3e
000000c0: 314a 1cc0 6ba5 06bf 596e 1bbf 9ec0 dcbf
000000d0: 0d0d b53e c19a c53e b2cb 91bf d87e cc3e
000000e0: f4c6 1abf d467 4b40 45c6 11be 63c7 57bf
000000f0: 7b61 2a3f b90e b53e 2ab8 77c0 f95b b2bf
00000100: 1a66 523f 1b5a bcbf 1275 bcbe b631 bdbf
00000110: 7584 663f cb77 87bf 64f9 3ec0 bcd6 923f
00000120: 33ea 1040 a33f 313c f8ef 0ac0 cc0e e13f
00000130: 0c12 c8c0 bff5 28bf a76a 3c3f 8a32 1d3f
00000140: c36a 11bf e3ae 7f40 678d d73f 1a54 973f
00000150: 2f82 d83f baef 093f 56b4 f1be 710e 3bbf
00000160: a7d9 993f 153b ee3f 8ed5 a5c0 ec10 0ec1
00000170: 9ef1 13c0 d20f a03f f059 e13e 14b3 e23f
00000180: d88a 2e3e d0fe f0bf 5bda ac3d 83fc 45bf
00000190: 016f d43f b0a4 26c0 46ac b9c0 ca12 04bf
000001a0: d27a c3c0 55f1 603f 810a ef3f 9550 2dbf
000001b0: 5e9a 41c0 07ec 53c0 e395 86bf 3159 473f
000001c0: 2b34 2f40 7abf fc3f f002 eebf b224 a0c0
000001d0: 0ae6 223f ad3b 9abf 5a66 8fbf 57f6 9ec0
000001e0: 0323 30c0 7bfb 793f d55b bb3f aaab 10c0
000001f0: a984 313f 3a34 96bf 0b00 3f40 97ae 7ec0
00000200: 2cab bfbf 5ed3 31bf 1191 4d3f 43e3 ddbe
00000210: 6f7f cd3e 58a7 553d c998 2fbf 258f 8bbf
00000220: d711 0cbf a33b 64bf dcf1 69bc 8b91 8c3e
00000230: adbf 553e 7764 dd3e 18e0 c2bf 8649 55bf
00000240: 165f f6bd 360c 84bf 88dc ed3c 200f 853f
00000250: 8e7b 8e3f 14d3 22bf d8bb adbf e00e 4a3e
00000260: 5bdc 92bf a3aa 47bf a863 9fc0 984c 9d3e
00000270: 2473 2f3f 6b59 8e3f e32f 33c0 78cf e0be
00000280: 8b60 85bf 9193 c1bf 9abd 1b3f e14b 98bf
00000290: 7d2e a03e d32b d1bf 87ee e73e 5422 6e3f
000002a0: 99d4 b73e d3b8 85c0 b7a4 a93f 0aa0 ebbf
000002b0: 1681 0dc0 c803 733e 209f ec3e 7523 413f
000002c0: 44dd bcc0 bf3f 0fc0 862d 12be 068f 0ac0
000002d0: 1c08 12c0 c783 c0bd 87cc 92bf 662f 8bbf
000002e0: 77d7 49c0 a0a3 b939 ca87 783f 8454 c1be
000002f0: 9122 8c3f bf21 12c0 1ce1 1cbf 22af 963f
00000300: 1bd6 6ebf 0846 e73d 8ba4 9c3f 90f3 2b3e
00000310: 8df2 81c0 ed00 4c3f 166a dcbf d0e6 4dbf
00000320: a35b 03bf de97 bdbe 2324 aabf 825b 28c0
00000330: a762 913e 4f00 673f e036 ecbf 3953 afbf
00000340: 67d0 38bf 4506 a7bf 1fe5 83bf b27e 6bbf
00000350: 9863 b0be e25f c9bf 33e0 4b3f 1445 b93d
00000360: b9a3 71c0 6386 b0bf 1eaf a93e ab82 fbbd
00000370: ff07 25c0 4829 30c0 39c9 a2be f9a4 86c0
00000380: e645 1fbe bc77 253f 079a 14be 3c1e 8abf
00000390: 35b0 b13f d8a3 08c0 9e2b 59bf 61c8 8abd
000003a0: d1ce 2dbf cccc 24bf 764f a53c 81b0 4e3f
000003b0: aa56 9e3e 9851 6e3e c173 7cc0 2592 76bf
000003c0: 481e 4fc0 ab64 10bf 37c3 393f 8e09 583e
000003d0: 4450 0dc0 278b 32bf 1576 bdbf a2ea 383f
000003e0: 3a35 a63e a675 49c0 b033 ac3d a674 813f
000003f0: af8a bfbf c1ce a7bf c918 9dbe 3a5d 3bc0
-0.60190254 -0.16659006 -3.0274398 0.044996593 -2.85311 -1.1955662 -2.0929315 -1.1281233
1.1080203 1.0215299 0.5296875 -1.604998 -1.0261725 2.8852026 2.5082476 0.96376556
-1.2756141 -1.4800935 -1.8589038 -0.16976807 -2.4611762 2.765865 -2.4982653 -5.656989
-2.3669438 -0.5578258 0.91351855 -2.8336225 -1.0088854 -2.8801274 -1.0838342 -0.8079462
0.21491778 -2.3975508 -2.1478016 1.1070317 0.90397274 -0.23546834 1.8904465 -0.56656194
-2.706671 0.76628464 -2.6677492 0.09504789 -2.616233 -1.6399342 0.2863993 0.2773589
-2.4420283 -0.5259616 -0.6071525 -1.7246282 0.3536152 0.3859463 -1.1390288 0.39940524
-0.6045983 3.1782122 -0.1423579 -0.84288615 0.66554993 0.35362795 -3.8706155 -1.3934318
0.82187045 -1.4714998 -0.36808068 -1.4780796 0.90045863 -1.0583433 -2.9839716 1.1471782
2.2642944 0.010818395 -2.1708965 1.7582641 -6.252203 -0.6599998 0.7360024 0.6140524
-0.5680353 3.9950492 1.6840028 1.1822541 1.6914729 0.5388142 -0.47207898 -0.7306891
1.2019547 1.861178 -5.1823187 -8.879131 -2.3116221 1.2504828 0.4401393 1.77109
0.17045152 -1.8827763 0.084400855 -0.7733843 1.6596376 -2.6038017 -5.8022795 -0.5159117
-6.1087427 0.87868243 1.867508 -0.67701083 -3.0250468 -3.311281 -1.0514492 0.7787047
2.737559 1.9745934 -1.8594646 -5.0044794 0.6363226 -1.2049462 -1.120311 -4.967571
-2.752137 0.97649354 1.46374 -2.2604775 0.6934305 -1.1734688 2.9843776 -3.979406
-1.4974113 -0.69463146 0.8029948 -0.4333745 0.40136287 0.052161545 -0.68592507 -1.0903059
-0.5471472 -0.891535 -0.014278855 0.2745479 0.208739 0.4324071 -1.5224638 -0.8331531
-0.12029855 -1.0316226 0.029035822 1.0395241 1.1131456 -0.6360333 -1.357295 0.19732237
-1.1473497 -0.77994746 -4.980915 0.307225 0.68535066 1.1121038 -2.7997978 -0.43908286
-1.0420088 -1.5123159 0.60836184 -1.1898156 0.31285468 -1.6341499 0.4529917 0.9302113
0.35904387 -4.1788116 1.3253392 -1.8408215 -2.2110038 0.23731911 0.46215153 0.7544473
-5.90201 -2.2382658 -0.14275178 -2.1649795 -2.281745 -0.094001345 -1.1468667 -1.087384
-3.153776 0.0003540786 0.970822 -0.37759793 1.0948049 -2.2833097 -0.6128099 1.1772196
-0.9329545 0.11292654 1.2237715 0.1679213 -4.0608582 0.7968891 -1.7219875 -0.80430317
-0.513117 -0.37029928 -1.3292278 -2.6305852 0.28395578 0.90234846 -1.8454247 -1.3697273
-0.72192997 -1.3048788 -1.0304297 -0.91990197 -0.34450984 -1.5732386 0.79638976 0.09046379
-3.7756178 -1.3791012 0.33141416 -0.12280782 -2.578613 -2.7525196 -0.31794146 -4.2076383
-0.15554008 0.64635825 -0.14511882 -1.0790477 1.3881899 -2.1350002 -0.8483218 -0.067765005
-0.678937 -0.64374995 0.020179491 0.80738074 0.30925494 0.23273313 -3.944565 -0.9631675
-3.2362232 -0.5640361 0.725635 0.21097395 -2.208024 -0.6974358 -1.4801661 0.7223302
0.32462484 -3.1478057 0.08408296 1.0113723 -1.4964198 -1.3109971 -0.30682972 -2.927565

fc2.bias f4 [128]
00000000: 1e75 2d3f 8023 0fbf fc7e febe 8c52 ab3e
00000010: 8198 b63f 6b08 8bbf d8f4 2abf 4787 823c
00000020: 82cf 3cbe 9688 59bf fc24 8f3e 3499 ebbd
00000030: a724 a13b e1cc ba3d 066b 02be f38b e0be
00000040: 22b6 2a3f e73d cb3d 4a89 71bf 7933 9fbc
00000050: fc24 3dbf 7294 713f a874 34be 576d 8d3f
00000060: dbbd e739 5485 f73b 4a10 cfbb dc1d 35bf
00000070: 431d 0f40 cb5d 863e b453 46be 06ac 4b3f
00000080: 67f9 7ebe e734 573f 53c6 b23f 22e4 06bf
00000090: 4526 cdbd 5179 07bd b058 1abe fdb1 a2bf
000000a0: 6eac 3dbf 975b b7be 61b5 c0bf 5b47 b03e
000000b0: 5989 03be ae1f b5bf 1779 523e a78b 1dbd
000000c0: c584 47be a178 aebd c98c 8abd 7edd 0dbe
000000d0: 95c9 503f ebec c0bf a771 5cbe 9fbb af3e
000000e0: bf99 d43e 9280 17be 8e72 f6be fdf6 973e
000000f0: 61f1 56bf 4a07 35be a8a3 e03f 7a1a 943f
00000100: 9503 0abf 2ff0 8cbf aef2 12be b8d0 353f
00000110: cabf 64bd 0173 4cbf f3fe 5bbc 75c9 44be
00000120: 5c3d f53e 3dd0 edbc 6936 06be 32a4 3ebd
00000130: 1de2 b7be 3995 73bf 4d22 68be e9f8 03bf
00000140: fa57 a4be 0267 5ebd 1f26 51bf 1063 00be
00000150: a493 68bf 2fff 743f bc2a dd3e 2280 283f
00000160: fc45 34bf 9fb0 76be ac7a 1bbe 7759 203e
00000170: d467 86bd 181a fcbe b42e 9c3e 6f6e b93f
00000180: 655f 603e 3a73 a8bd 95b5 8a3f 0483 fcbe
00000190: 4663 73be da55 95bd 37fa 8abe a4b2 47bd
000001a0: 3788 e0be bc11 dcbf 176d 483f 8677 9fbd
000001b0: bf3e 87bf 06a3 62bd abaf 44bd 3196 01be
000001c0: 1b5d a43e 45c3 083e 2b1d 4bbe b981 a13f
000001d0: 4578 0740 1c30 b2bd 29e5 1fbf ae33 d4bd
000001e0: 3e24 efbe 0a44 c3be 737c 9abc 85f4 023f
000001f0: 09c4 34be d2fb 473f 3738 d5bb 451d 89be
0.6775683 -0.55913544 -0.49706256 0.33461416 1.426529 -1.0861944 -0.6677985 0.015933646
-0.18438533 -0.8497404 0.27957904 -0.115038306 0.0049176994 0.09121109 -0.12736139 -0.43856773
0.6668416 0.09923916 -0.9435011 -0.019433724 -0.7388456 0.94367135 -0.17622626 1.1048993
0.00044201207 0.0075537357 -0.0063190805 -0.70748687 2.236161 0.26243433 -0.19367868 0.7955936
-0.24899827 0.840651 1.3966774 -0.52691853 -0.10017065 -0.03307468 -0.15072894 -1.2710568
-0.7409123 -0.35812065 -1.5055352 0.3442944 -0.12845363 -1.4150293 0.20554005 -0.03846326
-0.19484241 -0.08519102 -0.06765134 -0.13854024 0.8155759 -1.5072302 -0.2152773 0.3432283
0.4152355 -0.1479514 -0.48134273 0.29680625 -0.83962065 -0.17678562 1.7549944 1.157058
-0.53911716 -1.1010798 -0.14350387 0.71021605 -0.055846967 -0.7986298 -0.013427484 -0.19217475
0.47898376 -0.02902996 -0.13106693 -0.046543308 -0.35914698 -0.9514957 -0.22669335 -0.5155168
-0.3209837 -0.054297455 -0.81698793 -0.1253779 -0.9085028 0.9570188 0.43196666 0.65820515
-0.7041929 -0.24090813 -0.15183514 0.15659128 -0.065627724 -0.49238658 0.30504382 1.4486827
0.2191139 -0.08225103 1.0836664 -0.49318707 -0.23768339 -0.072917655 -0.27144024 -0.04875435
-0.43853924 -1.7192912 0.7829146 -0.07786469 -1.0566024 -0.055331253 -0.048019093 -0.1265495
0.32102284 0.1335574 -0.19835345 1.2617713 2.1167157 -0.087005824 -0.62459046 -0.103614196
-0.46707338 -0.38137847 -0.01885817 0.5115436 -0.17652906 0.7811862 -0.0065069455 -0.26780143

fc3.weight f4 [4, 128]
00000000: 5ac9 a2bf d2d0 1fc0 9bfb c93f a326 2d3a
00000010: 54ad 6fbf 7d6e 58bf 214e 383f a207 84bf
00000020: b78b 91bd c7b5 8cbf 2513 2ec0 a420 a0bd
00000030: 9f7d ee3c 731c 993f 7046 853f c1f0 363c
00000040: ae8a a53f 1219 363c aedb 0840 2282 2e40
00000050: 22d0 733f 277d 843f d5b6 02c0 7912 813f
00000060: 845a 853c 6629 e3bf 23e2 38bd f441 493f
00000070: 0639 b8be 5d34 0f40 5db1 56bf c13d debe
00000080: a0d0 743f 1a22 cc3f 676f abbf 4218 50bf
00000090: 6fcb efbb 31db 723a 826a 093c 9787 aebe
000000a0: a1a4 993f 2ecd a43f a040 ff3f e180 09bf
000000b0: d31c 2fbe 10fd e23f 0703 46c0 f0ab ae3c
000000c0: 5aa5 aabd db6c 80bd d724 6bbd 7f5b 9cbf
000000d0: eed3 32bf 0c03 1940 a16d ecbe 83d2 ccbf
000000e0: eba2 d23f 3d6e 133d b8ae e43f 8bd0 f73f
000000f0: 68f6 6c40 bc83 b8be 1917 5b3f f55f b73f
00000100: 4b1e 3e3d 6362 45bf 0b5c 0cbe c58b cb3f
00000110: 86ea cdbd 86b9 813f 6dee d8bb 1fd6 a53f
00000120: ecb1 88be 1de8 d3bc d588 31bd 2e10 05bd
00000130: 5695 953f d6ad 2c40 36df 20bf daa3 c93f
00000140: 0ad6 df3e 3a88 60bc 0ce7 1140 16fa 3bbb
00000150: a631 02c0 5fc8 cf3f b06b b73f 986e b0bf
00000160: 7ee5 a83f 9a11 62bf 32cc 973d 87ba 9d3f
00000170: 1a2c 903d 8e1e 7abf e5d1 3cbf 6a91 79bf
00000180: 6232 1340 3031 42bc d44c cc3f e9f9 b73f
00000190: 474c 48bf ce66 14bc b4cc c83e b15b 70bf
000001a0: 1c93 c7bf 05cc 42bf 36f6 78bf efa8 b73c
000001b0: ed22 7c3f 57be 80bd 1775 203f cfc1 e33c
000001c0: 2f57 b33f 8eca 27bf 8752 94be 1df8 0440
000001d0: 20c8 99bf b87c 5f3d c970 143e 369c 37bd
000001e0: cddb cc3e a88b 0f40 4f2c bbbd e0b9 03c0
000001f0: b606 8b3f 3b9e 0040 b9c0 533d f3df a5bd
00000200: f8ab bcbf bb4c bbbf 68bc fd3f e3ce 05c0
00000210: a125 92bf b852 3e3f 9d77 8f3f e4df 61bf
00000220: 7894 c0ba 8647 0ac0 9819 393f 0a39 b2bb
00000230: 402d 6f3b 8e81 3abf b3d2 eb3f f114 18bf
00000240: 176b ee3f d6cd 43bf 1d4f ff3f 7dfd 5140
00000250: 6f6e 4c3f d3e3 793f f448 053f 20a6 ab3f
00000260: f27d b83c c1fa 95be 90af 4d3b 5ecd 6bbd
00000270: dcbb 37bf d677 0140 3605 35bf 452c 01bf
00000280: 4721 873f 3914 b43f 4b47 abbf 4766 d93e
00000290: b0e3 8b3b 58c8 b33c 0385 063d 3763 bf3f
000002a0: 8154 86bf 901a 38bd 1636 98bf 27c2 4fbf
000002b0: 8ec1 8f3c 3242 e13f 042f 20c0 5c97 1ebd
000002c0: 3d29 133d dd15 003d 572d 7e3b 6b25 153f
000002d0: 0756 f5bf e241 9a3f 8638 bbbf 9e0b 233f
000002e0: e27a 0840 48a6 443c dd41 65bf 51a6 b23f
000002f0: 885f 4640 af04 dabe 83d1 d43f 1157 4f3f
00000300: c15c fd3f 144e 173f db22 7ebf 4959 98bf
00000310: a083 5e3d 6304 193f ce11 9c3d abfc cfbe
00000320: 3830 93bf e238 363d 0b88 5db8 6492 da3b
00000330: 7e22 27c0 9f66 1e40 bc78 2b3e c840 e43f
00000340: c013 d13d d6fd cd3c 5b40 0e40 1c2e bc3c
00000350: 7f41 8abf 8c5e ae3f 84ff 943f 0f26 373e
00000360: d23e 2bbf 47b2 99bf a4e7 2fbd ddee 8a3f
00000370: dc3d 3f3c be06 913f f2c3 06bf b19e 0cbf
00000380: 3377 1440 b5bd 803d 5d8c d53f 9b83 f63f
00000390: 3d2c 7cbe 586e a8bc 763b af3f ec5c 97bf
000003a0: db78 86bf ac29 92bf 72d8 acbf eece 743d
000003b0: 6fc4 243f 20d4 37bd af93 01c0 c862 82bd
000003c0: 1d55 a53f 7654 e03e 5cb5 1bbe 1f16 0d40
000003d0: 62cb 8abf f113 36bd 594d d93d 4386 81bd
000003e0: ae04 fdbf 597f 1240 8934 03bd a0a8 36c0
000003f0: 4899 e93f 1f9c 0340 a4ed 4fbb 6b62 933f
-1.2717698 -2.4971204 1.5779909 0.00066051836 -0.9362385 -0.8454359 0.71994215 -1.0314829
-0.071067266 -1.0992974 -2.7199185 -0.07818726 0.029112635 1.1961807 1.0412121 0.011165799
1.2932947 0.011114376 2.1384082 2.7266927 0.9523946 1.0350693 -2.0424092 1.0083762
0.016278513 -1.7747009 -0.045137536 0.7861626 -0.35981005 2.237571 -0.83864385 -0.4340649
0.95630836 1.5947907 -1.3393372 -0.81287014 -0.0073179523 0.00092642294 0.00838721 -0.34087822
1.2003366 1.2875116 1.9941597 -0.5371228 -0.1710084 1.7733479 -3.0939348 0.02132222
-0.083323196 -0.062707625 -0.05740818 -1.2215422 -0.6985463 2.390811 -0.4617739 -1.6001743
1.6455969 0.035993803 1.786582 1.9360517 3.7025394 -0.36038005 0.8558212 1.4326159
0.04641561 -0.7710325 -0.13706987 1.5902029 -0.100544974 1.0134742 -0.0066202194 1.295597
-0.26698244 -0.025867516 -0.043343384 -0.032486133 1.1686199 2.69811 -0.6284059 1.5753129
0.43717986 -0.013704354 2.279727 -0.0028682998 -2.0342803 1.6233023 1.4329739 -1.378375
1.3195035 -0.8830811 0.07411994 1.2322549 0.07039662 -0.9770287 -0.73757774 -0.9748751
2.2999501 -0.0118525475 1.5960946 1.4373142 -0.7824139 -0.009057714 0.39218676 -0.9388991
-1.5591769 -0.7609256 -0.9725069 0.022419421 0.9849079 -0.062863044 0.62678665 0.027802376
1.4010981 -0.6554345 -0.28969213 2.0776436 -1.2014198 0.0545623 0.14496149 -0.04482671
0.40011445 2.242899 -0.091393106 -2.05822 1.0861423 2.0096576 0.051697467 -0.080993555
-1.4739981 -1.4632791 1.9823122 -2.0907524 -1.1417733 0.7434497 1.1208378 -0.88232255
-0.0014692685 -2.1606154 0.7230468 -0.0054389285 0.0036495477 -0.72853935 1.8423675 -0.59406954
1.8626431 -0.76485956 1.9946018 3.2810967 0.7985601 0.9761326 0.5206444 1.3410072
0.022520993 -0.29292873 0.003138516 -0.0575689 -0.71771026 2.0229392 -0.70711076 -0.50458175
1.055703 1.4068671 -1.3381132 0.42460844 0.004269086 0.021946117 0.032841694 1.4952153
-1.0494539 -0.044947207 -1.1891506 -0.8115563 0.017548349 1.7598326 -2.5028696 -0.038718566
0.035928 0.03127085 0.003878435 0.5826022 -1.9166878 1.2051356 -1.4626625 0.636896
2.1325002 0.012002535 -0.89553624 1.3957006 3.0995808 -0.42581698 1.6626438 0.8099223
1.9793931 0.5910351 -0.99271935 -1.1902248 0.054324746 0.5977232 0.076205835 -0.40622458
-1.149909 0.04448784 -5.2817206e-05 0.006670283 -2.6114802 2.4750135 0.16745275 1.783227
0.10208845 0.025145452 2.222678 0.022971205 -1.0801238 1.3622603 1.1640477 0.17885612
-0.6689273 -1.2007531 -0.04294552 1.0854145 0.011672463 1.1330183 -0.5264274 -0.54929644
2.3197753 0.06286184 1.668346 1.9258913 -0.2462625 -0.020560429 1.3690021 -1.1825233
-1.0505632 -1.1418967 -1.3503554 0.059767656 0.64362234 -0.044880033 -2.024639 -0.06366497
1.29166 0.4381444 -0.15205902 2.2044752 -1.0843318 -0.04445261 0.10610456 -0.063244365
-1.9767053 2.2890227 -0.032032523 -2.854042 1.8249903 2.0564039 -0.0031727338 1.151441

fc3.bias f4 [4]
00000000: eb0c 3c3f 81f3 d4be df1c 42be 1f55 393f
0.7345721 -0.4159203 -0.18956326 0.7239551
